Chapter02/lightning_logs/version_5/checkpoints/epoch=499-step=499.ckpt (torch, 4609 bytes, 9 tensors)

input_layer.weight f4 [4, 2]
000000 0d 32 99 bf 38 8b 60 40 1e 34 b9 3d 96 a2 5d bf
       -1.1968399 3.5084972 0.09043144 -0.8657621
000010 ee fd 74 c0 e7 88 14 40 c2 31 5a 40 68 27 5a 40
       -3.8279986 2.3208559 3.409287 3.4086552

input_layer.bias f4 [4]
000000 12 53 ed bd c7 c7 13 bf bf 60 96 bf 02 14 0b bf
       -0.1158811 -0.5772671 -1.1748275 -0.54327404

output_layer.weight f4 [1, 4]
000000 2e d1 80 bf 2a ad 28 3e a5 6a 90 3f 52 e0 a4 3f
       -1.0063837 0.16472307 1.1282545 1.2880957

exp_avg f4 [4, 2]
000000 ff fc a7 3b 6a b5 19 bc 38 8b b8 b9 35 1b ca 3a
       0.005126595 -0.009381631 -0.0003519894 0.0015419485
000010 cc 44 03 3c d9 c7 b9 bb b7 dc d7 bb e1 8f 92 bb
       0.008012008 -0.0056695757 -0.0065875906 -0.004472718

exp_avg_sq f4 [4, 2]
000000 a1 94 ee 36 d9 43 73 37 f3 e6 4c 37 63 8b b4 36
       7.1102554e-06 1.4499726e-05 1.221312e-05 5.380645e-06
000010 4d b3 95 37 92 9a 71 37 8b 00 9d 38 d0 ac 36 38
       1.7845678e-05 1.4400708e-05 7.4864445e-05 4.3553126e-05

exp_avg f4 [4]
000000 6b 20 31 bb 73 86 07 ba 1c 0f 12 3b 4e 27 ff 3a
       -0.002702738 -0.0005169876 0.0022286838 0.001946667

exp_avg_sq f4 [4]
000000 e2 0b 8f 37 2b 2b 0e 38 a9 e2 b6 37 1d 5b f5 38
       1.7052462e-05 3.389564e-05 2.1801638e-05 0.000116994815

exp_avg f4 [1, 4]
000000 9a 7a 3a 3d a1 bb 1a bc 22 15 0e bd 79 d4 8f bc
       0.04552708 -0.009444148 -0.034688123 -0.01755737

exp_avg_sq f4 [1, 4]
000000 d7 3e 35 3b 35 58 8d 3a 5a ae b1 3a 1d 2e 4d 3b
       0.0027655864 0.0010783734 0.0013555989 0.0031308003
