Chapter02/lightning_logs/version_8/checkpoints/epoch=499-step=499.ckpt (torch, 4609 bytes, 9 tensors)

input_layer.weight f4 [4, 2]
000000 78 05 88 c0 bb c6 91 c0 ec 4d 1a c0 6c 4e f1 bf
       -4.2506676 -4.555509 -2.411006 -1.8852057
000010 75 b1 53 3f 54 2e 39 c0 24 5e fd bf 91 16 05 bf
       0.8269265 -2.8934526 -1.9794354 -0.5198756

input_layer.bias f4 [4]
000000 6e 40 aa 3f 61 86 2f 40 e2 93 b1 be 53 ed 5f 3f
       1.3300912 2.7425768 -0.34683138 0.87471503

output_layer.weight f4 [1, 4]
000000 a5 57 16 c0 e9 94 ab 3f 33 b9 66 3f b0 f2 79 3f
       -2.3490994 1.3404819 0.9012634 0.97635937

exp_avg f4 [4, 2]
000000 09 2c 4c 39 96 12 4a 39 3b db 37 39 2b d4 da 38
       0.0001947136 0.00019271145 0.0001753391 0.000104345694
000010 71 27 e5 b8 62 a0 44 39 df 3c 50 39 0b 49 bb b7
       -0.000109269175 0.00018751764 0.00019859102 -2.232615e-05

exp_avg_sq f4 [4, 2]
000000 37 dd dd 37 fa 1a b2 37 e4 ed 0f 37 ef 69 91 36
       2.6448264e-05 2.1231815e-05 8.578852e-06 4.333669e-06
000010 e5 09 8d 36 b9 cb d5 36 9c 05 45 37 2a 51 e7 36
       4.2032793e-06 6.371611e-06 1.1743421e-05 6.893785e-06

exp_avg f4 [4]
000000 bf 56 a3 b8 3c 70 c3 b9 2a 34 a6 38 f7 f2 cb b8
       -7.7886034e-05 -0.0003727692 7.925213e-05 -9.72505e-05

exp_avg_sq f4 [4]
000000 eb 32 38 37 88 b8 b4 37 8f 57 2b 37 51 88 bd 37
       1.097911e-05 2.1543601e-05 1.0212781e-05 2.2594033e-05

exp_avg f4 [1, 4]
000000 8c e3 4c 3a 14 ef 54 ba 1c 14 b6 b9 8b 57 98 b9
       0.00078158895 -0.00081227836 -0.00034728728 -0.00029056924

exp_avg_sq f4 [1, 4]
000000 79 69 09 3a e0 c4 1a 3a aa 4c b1 39 94 9d f9 39
       0.0005241852 0.00059039705 0.0003381719 0.00047610386
