Chapter02/lightning_logs/version_1/checkpoints/epoch=499-step=1999.ckpt (torch, 4609 bytes, 9 tensors)

input_layer.weight f4 [4, 2]
000000 b4 ff ac 3e d0 dd 0d c0 92 44 a6 40 6d cc 96 40
       0.33788836 -2.2166634 5.1958704 4.7124543
000010 f3 53 38 bc b2 cf e8 bf b9 a2 93 40 76 bf 3c c0
       -0.011250484 -1.8188384 4.6136136 -2.9491858

input_layer.bias f4 [4]
000000 5e cd a8 3e e8 12 bb bf ee 20 0f 3f 52 1a d9 3f
       0.32969183 -1.4615145 0.5590962 1.6961157

output_layer.weight f4 [1, 4]
000000 ce ee 3b 3f 3f bb 72 3f 56 44 03 3f f2 a5 6f bf
       0.7341126 0.94816965 0.5127615 -0.9361259

exp_avg f4 [4, 2]
000000 ce 4d 78 bb b4 ea 3c 3c fe 35 2b bb 99 bc ef ba
       -0.0037888172 0.011530567 -0.002612471 -0.0018290459
000010 4c 23 8d ba ce a2 0b 3c 28 9a 90 bb 98 b3 89 3b
       -0.0010767966 0.008522702 -0.004412908 0.0042023174

exp_avg_sq f4 [4, 2]
000000 cf 62 1d 3b 53 f3 c6 3a 2c fe 2a 39 ac 3e d7 38
       0.0024015193 0.0015178717 0.0001630715 0.000102636724
000010 a2 59 da 3a 02 59 a1 3a f4 55 8a 39 92 7d 4e 3a
       0.0016658793 0.0012309852 0.0002638545 0.0007876988

exp_avg f4 [4]
000000 a0 3d 8a 39 96 c0 2d 3b 40 46 04 b9 9c 62 cc ba
       0.00026367325 0.0026512495 -0.00012614671 -0.0015593353

exp_avg_sq f4 [4]
000000 91 ea 64 3b 45 74 8c 3a 5a 8d 22 3b 2e e7 95 3a
       0.0034929852 0.0010715803 0.002480349 0.0011436695

exp_avg f4 [1, 4]
000000 0e d3 03 bd 18 da 23 bc b2 75 c8 bc bb 47 5f 3d
       -0.0321837 -0.010000728 -0.024470184 0.054511767

exp_avg_sq f4 [1, 4]
000000 b3 8f ed 3d 03 75 ca 3e 2b 79 36 3e 9c 8e aa 3e
       0.11599674 0.39542398 0.1781966 0.33311927
