Chapter02/lightning_logs/version_6/checkpoints/epoch=499-step=499.ckpt (torch, 4609 bytes, 9 tensors)

input_layer.weight f4 [4, 2]
0	0xc08747ad	-4.2274995
1	0xc08685fe	-4.2038565
2	0xc0018214	-2.0235643
3	0xc004fb5c	-2.0778418
4	0xbfa4438d	-1.2833115
5	0xbf93f4d5	-1.1559092
6	0xbe172b4d	-0.14762612
7	0xbf316cf5	-0.6930688

input_layer.bias f4 [4]
0	0x3f8dff73	1.1093582
1	0x4027ad1b	2.6199405
2	0x3f7ed256	0.995397
3	0xbe213645	-0.15743358

output_layer.weight f4 [1, 4]
0	0xbffa5c4a	-1.9559414
1	0x3fa30390	1.2735462
2	0x3f2e84e6	0.68171537
3	0x3cab0dab	0.02088054

exp_avg f4 [4, 2]
0	0x3ba41c16	0.005008231
1	0x3ba673b6	0.005079712
2	0x3b7c78bc	0.0038524112
3	0x3b744665	0.0037273404
4	0x3add56d9	0.0016886845
5	0x3ad2c6f1	0.0016081018
6	0x393f6e59	0.00018256287
7	0x397b200f	0.00023949168

exp_avg_sq f4 [4, 2]
0	0x3839c836	4.4293898e-05
1	0x3842663d	4.634842e-05
2	0x37ac30f4	2.0526793e-05
3	0x379cdd88	1.8699808e-05
4	0x3779a498	1.4879879e-05
5	0x374c7f04	1.2188921e-05
6	0x36ca40bc	6.027605e-06
7	0x369b91a1	4.6363134e-06

exp_avg f4 [4]
0	0xbb63f6bb	-0.0034784514
1	0xbc3e91ab	-0.01163141
2	0xbb81f387	-0.0039657983
3	0x38a4b813	7.854416e-05

exp_avg_sq f4 [4]
0	0x3888c015	6.5207634e-05
1	0x38b8dbba	8.814731e-05
2	0x383849fa	4.3937915e-05
3	0x37bdd61d	2.263026e-05

exp_avg f4 [1, 4]
0	0x3cb91bef	0.022596328
1	0xbcc8d336	-0.024514776
2	0xbbe88487	-0.0070958766
3	0x3b1654f1	0.0022938813

exp_avg_sq f4 [1, 4]
0	0x3af4c30a	0.0018673849
1	0x3b155c10	0.002279047
2	0x3b1530d4	0.00227647
3	0x3ac6e0b8	0.0015173173
