Chapter02/lightning_logs/version_2/checkpoints/epoch=499-step=1999.ckpt (torch, 4609 bytes, 9 tensors)

input_layer.weight f4 [4, 2]
-1.2508285 -0.861354 -0.8057817 -0.8978565 -1.3535535 -1.3135002 -4.876163 -4.631058
00000000: 261b a0bf b281 5cbf b647 4ebf ecd9 65bf
00000010: 3e41 adbf c620 a8bf 8709 9cc0 a131 94c0

input_layer.bias f4 [4]
0.5451752 0.47095248 1.2809421 0.77145505
00000000: 9a90 0b3f af20 f13e e9f5 a33f 147e 453f

output_layer.weight f4 [1, 4]
0.35464025 0.9211377 0.98124796 -2.0400255
00000000: 6893 b53e aecf 6b3f 1133 7b3f c78f 02c0

exp_avg f4 [4, 2]
0.0031185676 0.003679798 0.0123502975 0.016036823 0.009480795 0.013161462 0.002995166 0.003180898
00000000: e260 4c3b c428 713b e758 4a3c a85f 833c
00000010: 5655 1b3c 2ca3 573c 8c4a 443b 9d76 503b

exp_avg_sq f4 [4, 2]
0.00028448607 0.00029451225 0.010323867 0.010958041 0.004223862 0.004200386 0.0002011107 0.00029543196
00000000: 1327 9539 c468 9a39 7025 293c 5b89 333c
00000010: 5368 8a3b 64a3 893b 3ee1 5239 35e4 9a39

exp_avg f4 [4]
-0.0018528176 -0.00031641126 -0.006097989 -0.0030057346
00000000: 3eda f2ba 00e4 a5b9 a4d1 c7bb dcfb 44bb

exp_avg_sq f4 [4]
0.0004334273 0.0170553 0.006344888 0.0017893852
00000000: a13d e339 8eb7 8b3c c7e8 cf3b ce89 ea3a

exp_avg f4 [1, 4]
-0.01487784 -0.010433231 -0.02578323 0.011182301
00000000: 2fc2 73bc 24f0 2abc 5a37 d3bc f835 373c

exp_avg_sq f4 [1, 4]
0.13483505 0.18053995 0.11872303 0.0127582485
00000000: 3312 0a3e 77df 383e 0f25 f33d f907 513c
