Chapter02/lightning_logs/version_4/checkpoints/epoch=499-step=499.ckpt (torch, 4609 bytes, 9 tensors)

input_layer.weight f4 [4, 2]
-2.0236702 0.22613427 -3.2477233 1.4623171 -0.753732 0.21192792 3.911009 3.496358
00000000: d083 01c0 be8f 673e b3da 4fc0 352d bb3f
00000010: 95f4 40bf a203 593e f94d 7a40 54c4 5f40

input_layer.bias f4 [4]
-0.5077169 -0.9284659 0.2597752 -0.70291984
00000000: bcf9 01bf f1af 6dbf 4101 853e 8ef2 33bf

output_layer.weight f4 [1, 4]
0.1959524 0.403406 -0.063778274 0.821648
00000000: bfa7 483e 3b8b ce3e 2f9e 82bd 8657 523f

exp_avg f4 [4, 2]
0.0014116364 -0.00018176007 0.0052363975 -0.0025682885 -0.000727944 -0.0024243365 -0.0072775655 -0.0044553955
00000000: a806 b93a d996 3eb9 1696 ab3b bb50 28bb
00000010: 7fd3 3eba 9ee1 1ebb a578 eebb 91fe 91bb

exp_avg_sq f4 [4, 2]
1.3789324e-06 1.2949798e-06 5.058433e-06 2.8977818e-06 7.5538915e-06 7.146136e-06 3.3502714e-05 3.5277724e-05
00000000: c213 b935 2bcf ad35 9cbb a936 8377 4236
00000010: 6f77 fd36 d7c8 ef36 4485 0c38 2bf7 1338

exp_avg f4 [4]
0.00021873815 0.002334095 -0.00046911585 0.0030894438
00000000: 135d 6539 9ef7 183b aaf3 f5b9 4478 4a3b

exp_avg_sq f4 [4]
4.846898e-06 9.051527e-06 2.9951194e-05 6.273713e-05
00000000: 89a2 a236 03dc 1737 b33f fb37 bd91 8338

exp_avg f4 [1, 4]
-0.005237645 -0.025932668 0.012043617 -0.0151203275
00000000: 8da0 abbb bf70 d4bc 9752 453c 40bb 77bc

exp_avg_sq f4 [1, 4]
0.0022530179 0.0041545057 0.005166862 0.005774842
00000000: 5ea7 133b 8522 883b c84e a93b e33a bd3b
