Chapter02/lightning_logs/version_7/checkpoints/epoch=499-step=499.ckpt (torch, 4609 bytes, 9 tensors)

input_layer.weight f4 [4, 2]
0	0x4093c82c	4.618185
1	0xc099ad1e	-4.8023825
2	0x4022ea11	2.5455363
3	0xc02e6f28	-2.7255344
4	0x405bc2d3	3.4337661
5	0xc05ff9fd	-3.499633
6	0xbfeafcf4	-1.8358445
7	0x3fdec813	1.7404808

input_layer.bias f4 [4]
0	0xc043d7dc	-3.06005
1	0x3f9cf11b	1.226108
2	0xc02143e0	-2.5197678
3	0xbeaf5a3e	-0.34248537

output_layer.weight f4 [1, 4]
0	0x3fbf9a88	1.4969034
1	0xbf919238	-1.1372747
2	0x3f250893	0.6446621
3	0x3f901cc7	1.1258782

exp_avg f4 [4, 2]
0	0xb8fa084e	-0.00011922476
1	0x3825bc27	3.9514296e-05
2	0xb91a2f7d	-0.00014704275
3	0x398db455	0.00027027974
4	0xb88ad7d3	-6.620553e-05
5	0x37e8d300	2.775481e-05
6	0x3904799b	0.00012633803
7	0xb9862198	-0.000255835

exp_avg_sq f4 [4, 2]
0	0x3745b2a1	1.1783705e-05
1	0x36bdc5b2	5.6556537e-06
2	0x37e35a25	2.7102486e-05
3	0x3803386d	3.1285384e-05
4	0x361643e1	2.2391253e-06
5	0x360839e6	2.029928e-06
6	0x37f6fced	2.9443263e-05
7	0x37e3a632	2.71379e-05

exp_avg f4 [4]
0	0x37ef9d57	2.8564287e-05
1	0xb937b733	-0.00017520487
2	0x380b6135	3.3230714e-05
3	0x399e941a	0.00030246453

exp_avg_sq f4 [4]
0	0x3651923c	3.1228547e-06
1	0x384971fc	4.802829e-05
2	0x367e8326	3.7925288e-06
3	0x389ba3d6	7.421493e-05

exp_avg f4 [1, 4]
0	0xb9fd22ac	-0.00048281753
1	0x3a985827	0.0011622951
2	0xb9a2894b	-0.0003100134
3	0xba63a261	-0.0008683559

exp_avg_sq f4 [1, 4]
0	0x3a61cb64	0.00086133764
1	0x3b47d331	0.003049087
2	0x3a443da4	0.0007485992
3	0x3aed5d66	0.00181095
