Chapter02/lightning_logs/version_3/checkpoints/epoch=499-step=1999.ckpt (torch, 4609 bytes, 9 tensors)

input_layer.weight f4 [4, 2]
0	0x3e193b05	0.1496392
1	0xbd7e1341	-0.06203008
2	0xbe4e5e8e	-0.20153257
3	0xbec01191	-0.37513402
4	0x3e9a9f5a	0.301997
5	0xbea2e287	-0.31813452
6	0xbfacee03	-1.3510135
7	0x3f7193cb	0.9436614

input_layer.bias f4 [4]
0	0xbef3155a	-0.47477227
1	0x3ee63337	0.4496095
2	0xbe7fa55a	-0.2496542
3	0xbf47fa52	-0.78116333

output_layer.weight f4 [1, 4]
0	0x3ee8817f	0.45411298
1	0x3d8a90c3	0.06765892
2	0x3f05557d	0.5208357
3	0x3eb243ca	0.34817344

exp_avg f4 [4, 2]
0	0x3a5ac290	0.0008345032
1	0x3beb1831	0.0071745147
2	0x3992de74	0.0002801303
3	0x3a8516e2	0.0010153914
4	0x3a414280	0.0007372275
5	0x3c156aca	0.009119699
6	0x3c099f23	0.008399758
7	0xbac4acbc	-0.0015005092

exp_avg_sq f4 [4, 2]
0	0x3ba7dcc5	0.0051227533
1	0x3ba67025	0.0050792866
2	0x3914bd84	0.0001418498
3	0x391acc09	0.00014762593
4	0x3be55871	0.0069990684
5	0x3bdf8e98	0.0068224184
6	0x3a7c8e25	0.00096342183
7	0x3ab2f526	0.0013653382

exp_avg f4 [4]
0	0x3a30d340	0.0006745346
1	0x389eb6a0	7.568044e-05
2	0x3af1c0e0	0.0018444322
3	0x3bb71e2e	0.0055883145

exp_avg_sq f4 [4]
0	0x3c276af6	0.010218373
1	0x39960018	0.000286103
2	0x3c64a11a	0.013954425
3	0x3b2019ab	0.0024429362

exp_avg f4 [1, 4]
0	0x3ab2ffe0	0.0013656579
1	0xbb5436f0	-0.0032381378
2	0xbb139510	-0.0022519268
3	0xbc69632e	-0.014244838

exp_avg_sq f4 [1, 4]
0	0x3e095f2d	0.13415213
1	0x3e80b71e	0.25139707
2	0x3e35062c	0.17678136
3	0x3e1fc176	0.15601143
