Chapter02/lightning_logs/version_0/checkpoints/epoch=99-step=399.ckpt (torch, 4609 bytes, 9 tensors)

input_layer.weight f4 [4, 2]
0.23239063 0.50455797 0.18016888 -0.32713 0.3141315 -0.35741115 0.33610207 -0.2141607
00000000: cff7 6d3e b62a 013f 317e 383e 957d a7be
00000010: d8d5 a03e 98fe b6be 9215 ac3e f14c 5bbe

input_layer.bias f4 [4]
0.49004224 0.009173198 0.06720702 -0.73111457
00000000: d1e6 fa3e 2e4b 163c d6a3 893d 532a 3bbf

output_layer.weight f4 [1, 4]
0.5769891 -0.24907634 0.17820542 0.034115035
00000000: 8fb5 133f de0d 7fbe 7b7b 363e 35bc 0b3d

exp_avg f4 [4, 2]
-0.00194172 0.0064748786 -0.003041288 -0.0058908863 0.0026960252 0.0043232203 0.00034459168 0.00096289994
00000000: 5081 feba 382b d43b 5850 47bb 5608 c1bb
00000010: ccaf 303b cda9 8d3b 50aa b439 1f6b 7c3a

exp_avg_sq f4 [4, 2]
0.002897134 0.0021309913 0.00088437606 0.0007551627 0.00034209312 0.0003199801 1.33877875e-05 1.10911715e-05
00000000: d8dd 3d3b 1aa8 0b3b 79d5 673a 1cf6 453a
00000010: f65a b339 01c3 a739 1c9c 6037 3814 3a37

exp_avg f4 [4]
-0.0018331157 -0.001063331 0.0013068006 0.00024267973
00000000: 2845 f0ba 785f 8bba f448 ab3a d877 7e39

exp_avg_sq f4 [4]
0.005095365 0.0014934221 0.00059721543 2.133005e-05
00000000: 05f7 a63b eebe c33a 738e 1c3a efed b237

exp_avg f4 [1, 4]
0.017698757 0.00067829713 0.0028512664 0.002568286
00000000: fcfc 903c c0cf 313a 50dc 3a3b b050 283b

exp_avg_sq f4 [1, 4]
0.16247122 0.07546715 0.101717606 0.049412638
00000000: db5e 263e 858e 9a3d 5251 d03d e864 4a3d
